orchestrator/training/lora_adapter/adapter_model.safetensors (safetensors, 1016 bytes, 4 tensors)

base_model.model.transformer.h.0.attn.c_attn.lora_A.weight f4 [8, 2]
0	0xbefaf9ec	-0.490188
1	0x3e63215c	0.22180694
2	0xbe4efc44	-0.20213419
3	0xbe1c2d33	-0.15251617
4	0x3f28258f	0.6568231
5	0x3d810afe	0.06300925
6	0x3e25c6fb	0.16189186
7	0x3e633ceb	0.22191207
8	0xbe546525	-0.20741709
9	0x3d45f4ff	0.04832935
10	0xbed5574f	-0.41668174
11	0x3ee36ee2	0.44420534
12	0xbe650118	-0.22363698
13	0xbf0967cc	-0.53674006
14	0xbe37d9fe	-0.17954251
15	0x3f1a5f6d	0.6030186

base_model.model.transformer.h.0.attn.c_attn.lora_B.weight f4 [6, 8]
0	0x3ace0f82	0.0015721174
1	0x39b0537d	0.0003363154
2	0xbac47d1d	-0.00149909
3	0x39a3c682	0.00031237683
4	0x3a87ed84	0.0010370468
5	0x3ad7828d	0.0016442105
6	0xba8b267a	-0.0010616325
7	0x3acfba54	0.0015848377
8	0x3b29709b	0.0025854472
9	0x3adeeadb	0.0017007248
10	0xbb2adb64	-0.0026070708
11	0x3a3e985c	0.0007270628
12	0x3b1aca77	0.0023619214
13	0x3b28a894	0.0025735246
14	0xbb0015c9	-0.0019544235
15	0x3b237974	0.0024944218
16	0xbae2ed9f	-0.0017313248
17	0xb9f7529a	-0.00047173054
18	0x3adadc2b	0.0016697695
19	0xba14ba65	-0.0005673527
20	0xbaa979f9	-0.0012930027
21	0xbaea7e03	-0.0017890338
22	0x3ab61218	0.001389089
23	0xbae689b9	-0.0017588652
24	0xbb83e2f4	-0.0040248577
25	0xbb3b467a	-0.0028575943
26	0x3b836922	0.0040103355
27	0xbb41eccb	-0.0029590602
28	0xbb79f896	-0.0038142554
29	0xbb846b74	-0.0040411297
30	0x3b7ae77a	0.0038284943
31	0xbb83d307	-0.004022959
32	0x3a12a7c4	0.0005594457
33	0x3a0e9598	0.00054391613
34	0xba11a636	-0.00055560784
35	0x39e800db	0.00044251126
36	0x3a12319c	0.00055768504
37	0x3a126deb	0.0005585837
38	0xba08e3e5	-0.0005221947
39	0x3a117104	0.00055481517
40	0x3ac235d7	0.0014817071
41	0x3ac03f33	0.0014667272
42	0xbacfc076	-0.0015850205
43	0x39405d21	0.0001834524
44	0x3ac7116e	0.001518769
45	0x3ab8d8e7	0.0014102728
46	0xba577d96	-0.0008220313
47	0x3aaaf609	0.0013043295

base_model.model.transformer.h.1.attn.c_attn.lora_A.weight f4 [8, 2]
0	0xbeab40c8	-0.33447862
1	0x3eaa4bbd	0.3326091
2	0x3dd6d3f9	0.10489649
3	0x3c9dfdc9	0.019286053
4	0x3f2708db	0.6524789
5	0xbe3cb923	-0.18429999
6	0xbe930cf3	-0.28720817
7	0xbee22004	-0.4416505
8	0xbdc0dc4e	-0.0941702
9	0xbf079bcb	-0.52972096
10	0x3bc5c7fa	0.006035802
11	0x3e844675	0.25835004
12	0x3f0f185a	0.5589653
13	0x3db0adb3	0.086268805
14	0x3f0ccad2	0.5499698
15	0x3e34a4a8	0.17640936

base_model.model.transformer.h.1.attn.c_attn.lora_B.weight f4 [6, 8]
0	0xba5af300	-0.000835225
1	0x39b9faa9	0.00035472706
2	0x3a6d5b14	0.0009054404
3	0x39b9c970	0.00035436032
4	0x3a30cd63	0.0006744472
5	0xba15fbb5	-0.0005721406
6	0x3a571a16	0.0008205486
7	0x3a4b46fe	0.0007754414
8	0xbb70c1db	-0.003673664
9	0x3b5cdbea	0.0033700415
10	0x3b787943	0.0037914074
11	0x3b024802	0.0019879346
12	0x3b549226	0.0032435744
13	0xbb56c6de	-0.0032772343
14	0x3b7b1774	0.003831354
15	0x3b7b4e46	0.0038346215
16	0x3aa388a7	0.0012476639
17	0xba364fae	-0.0006954622
18	0xbaa46487	-0.0012542167
19	0xba8b2d69	-0.0010618392
20	0xbaa138de	-0.0012300273
21	0x3a90117e	0.0010991541
22	0xba971660	-0.0011527054
23	0xba8f4e22	-0.001093332
24	0x3b7e50ed	0.003880556
25	0xbb5ffd6e	-0.0034178155
26	0xbb7e763f	-0.0038827804
27	0xbb73f77a	-0.0037226365
28	0xbb7db2c1	-0.0038711282
29	0x3b7805e0	0.0037845299
30	0xbb7a5a3b	-0.0038200754
31	0xbb77c149	-0.0037804416
32	0x3b1f4643	0.0024303354
33	0xbb1c7177	-0.0023871341
34	0xbb1f8032	-0.0024337885
35	0xba378fdd	-0.00070023333
36	0xbb1160f8	-0.0022183042
37	0x3b173413	0.002307181
38	0xbb1c856f	-0.0023883244
39	0xbb18d741	-0.002332166
40	0xbb1b83f3	-0.002372977
41	0x3b1b1cf4	0.002366838
42	0x3b1dc73e	0.0024075056
43	0x39cde602	0.00039272016
44	0x3b025254	0.0019885497
45	0xbb0b9172	-0.002129641
46	0x3b1b2379	0.0023672266
47	0x3b16699e	0.0022951136
